results/wine_mlp_sgd_142.pt (torch, 8405 bytes, 3 tensors)

fc1.weight f4 [128, 11]
0.085604884 -0.2751095 0.17130543 -0.2047274 -0.2758527 -0.06782391 -0.19189288 0.012533526
0.20507039 0.054991506 0.26904574 -0.22890899 0.07672854 -0.2550903 0.25840372 0.26808998
0.29111204 -0.24705239 -0.27030593 -0.24237229 -0.19307207 -0.011581072 0.05652256 -0.08651451
0.049630463 0.018286984 0.025034843 -0.1935297 -0.2777689 -0.045273565 -0.27934313 -0.15847442
0.12989053 -0.19169222 0.15910162 -0.18870431 0.3006754 -0.01886376 0.12822601 -0.17000021
0.021516494 -0.14675555 -0.16770896 -0.09280952 -0.11745934 0.13956088 -0.23630652 -0.03437099
-0.12881958 -0.20876609 -0.2772243 0.2968952 -0.23018698 -0.27465203 -0.28487566 -0.17261545
0.0051234164 0.025007958 0.26263437 0.19186708 -0.016931396 -0.29043546 0.17246494 0.25375402
-0.107816495 -0.1253738 -0.18401706 0.11912177 -0.13066244 -0.26876193 0.1546241 -0.219368
0.07527092 0.25307873 0.2546442 -0.17955583 -0.20662592 0.08236511 0.02867297 0.28181118
-0.043409936 -0.12080578 -0.059428375 0.108848475 0.20258735 -0.14635831 -0.05141251 0.27196816
0.22952631 -0.09854743 0.06340628 0.26023078 0.125526 -0.20836076 -0.06488056 0.10054396
0.24807112 0.09056353 -0.13438591 0.21339495 0.06465269 0.14846577 0.23859818 0.1286617
-0.023389308 -0.09642022 0.19464268 0.30053183 0.19780369 -0.003344836 -0.25250497 0.18717627
-0.29255587 0.24362051 0.16969678 -0.2917083 -0.28747424 -0.22014153 -0.007496658 0.19446486
0.21030815 -0.053453606 -0.24976973 0.0056861877 0.2009598 -0.27272242 -0.22919099 0.0067608864
0.25161552 0.012691904 -0.018096449 0.24202505 -0.0039237845 0.17898071 -0.035615727 0.075995736
0.14100435 -0.1930716 -0.032473955 -0.087838 0.03392616 0.15493955 -0.018062448 -0.25450623
-0.1207589 -0.2127491 0.10282417 0.10979167 -0.22557259 0.17282283 0.15116793 0.08278535
0.19748734 -0.2587313 0.19904704 0.24239205 0.18994139 0.23780175 0.116395056 0.25178465
-0.23131496 0.15656011 -0.21750152 0.28627315 -0.006758027 -0.24801041 0.2673223 -0.015708437
-0.10860332 0.26297322 -0.26659736 -0.2938367 -0.23534547 0.07934486 0.18238196 -0.113213435
-0.20413941 0.035836097 0.27796054 -0.17800532 -0.011237062 -0.09808703 -0.13990733 0.16220997
0.21727002 0.06664449 -0.18030812 0.01718537 -0.16913353 -0.27532366 0.0711692 0.21599138
-0.1800757 -0.22815989 0.18186466 -0.14546014 -0.07433859 0.19444938 0.04227346 -0.22095422
0.13183089 -0.15188186 -0.10079836 0.10064114 0.006182352 0.042527735 0.30143732 -0.074831486
0.19450538 0.13150132 0.2552759 0.118762046 -0.25173426 0.024407731 -0.076854 0.10913295
-0.022264447 0.17241812 -0.1546048 -0.17388722 0.0069182063 -0.23938254 -0.2221662 0.13468373
-0.09514614 0.13826106 0.04938208 -0.17306784 -0.18730697 0.14411773 0.044954933 -0.06906032
0.024400946 -0.24591021 0.15890543 -0.12076693 -0.14543127 0.094928235 -0.0830458 -0.18685235
-0.032425143 -0.29241303 0.18151206 -0.21547313 0.28306103 -0.08024466 -0.1602715 0.18793535
0.000859004 0.22965653 0.08136044 -0.30199555 -0.2699164 0.10859059 -0.18346326 0.12784377
00000000: 9d51 af3d 27db 8cbe b16a 2f3e 0fa4 51be
00000010: 913c 8dbe 43e7 8abd 917f 44be 6b59 4d3c
00000020: f9fd 513e c63e 613d 5dc0 893e 1e67 6abe
00000030: da23 9d3d 329b 82be 7e4d 843e 1743 893e
00000040: a30c 953e 4dfb 7cbe 8a65 8abe 7130 78be
00000050: afb4 45be 89be 3dbc 3384 673d 852e b1bd
00000060: 5049 4b3d 96ce 953c df15 cd3c a62c 46be
00000070: ba37 8ebe c670 39bd 1006 8fbe 1e47 22be
00000080: 0602 053e f74a 44be 89eb 223e b43b 41be
00000090: 20f2 993e 2c88 9abc ae4d 033e 8914 2ebe
000000a0: 5c43 b03c 1647 16be e6bb 2bbe eb12 bebd
000000b0: 868e f0bd 0ce9 0e3e 56fa 71be 98c8 0cbd
000000c0: 48e9 03be c7c6 55be 58f0 8dbe a602 983e
000000d0: 23b6 6bbe 319f 8cbe 39db 91be 1bc2 30be
000000e0: 55e2 a73b 7ddd cc3c 0378 863e ce78 443e
000000f0: b6b3 8abc f5b3 94be a69a 303e 0cec 813e
00000100: e5ce dcbd fd61 00be f86e 3cbe 1df6 f33d
00000110: 60cc 05be 2a9b 89be c855 1e3e 01a2 60be
00000120: a427 9a3d 8993 813e b960 823e 7cdd 37be
00000130: bf95 53be 0aaf a83d 94e3 ea3c 8e49 903e
00000140: 9ece 31bd 0569 f7bd 2b6b 73bd f3eb de3d
00000150: 0f73 4f3e f4de 15be ed95 52bd 693f 8b3e
00000160: f208 6b3e 3cd3 c9bd 27db 813d f83c 853e
00000170: e389 003e 865c 55be 19e0 84bd fee9 cd3d
00000180: 5b06 7e3e 5f79 b93d 769c 09be 3584 5a3e
00000190: a168 843d 6907 183e 1553 743e e5bf 033e
000001a0: ef9a bfbc f777 c5bd 6950 473e 4fdf 993e
000001b0: 0d8d 4a3e 0935 5bbb 5548 81be 23ab 3f3e
000001c0: e2c9 95be a877 793e fec4 2d3e ca5a 95be
000001d0: d32f 93be c86c 61be 86a6 f5bb cc21 473e
000001e0: 055b 573e 2bf2 5abd a3c3 7fbe 3353 ba3b
000001f0: 68c8 4d3e 46a2 8bbe 0bb1 6abe 6d8a dd3b
00000200: c0d3 803e b4f1 4f3c 013f 94bc 6ad5 773e
00000210: 1793 80bb b846 373e cce1 11bd a7a3 9b3d
00000220: 7263 103e 90b4 45be 6903 05bd 69e4 b3bd
00000230: 28f6 0a3d 79a8 1e3e b3f7 93bc a44e 82be
00000240: 7150 f7bd e6da 59be 7a95 d23d 75da e03d
00000250: 80fc 66be 78f8 303e c4cb 1a3e 5e8b a93d
00000260: 1f3a 4a3e 6e78 84be fdd2 4b3e 9f35 783e
00000270: ff7f 423e 4d82 733e 8860 ee3d ebe9 803e
00000280: d4dd 6cbe 4b51 203e b8b8 5ebe 6592 923e
00000290: 7072 ddbb 71f6 7dbe 78de 883e fbae 80bc
000002a0: 6b6b debd 6da4 863e 737f 88be c471 96be
000002b0: 67fe 70be 8f7f a23d 56c2 3a3e 72dc e7bd
000002c0: ec09 51be dfc8 123d d850 8e3e 0747 36be
000002d0: a71b 38bc dae1 c8bd de43 0fbe 5f1a 263e
000002e0: 087c 5e3e e87c 883d b1a2 38be 55c8 8c3c
000002f0: 5731 2dbe 39f7 8cbe 28c1 913d d82c 5d3e
00000300: c465 38be bfa2 69be bb3a 3a3e 81f3 14be
00000310: d53e 98bd bd1d 473e f026 2d3d d341 62be
00000320: adfe 063e eb86 1bbe 5f6f cebd f11c ce3d
00000330: 5495 ca3b 9031 2e3d fe55 9a3e 4041 99bd
00000340: 6b2c 473e 48a8 063e 86b3 823e 8439 f33d
00000350: 50e3 80be b9f2 c73c a165 9dbd 1981 df3d
00000360: ee63 b6bc 608e 303e b850 1ebe 7e0f 32be
00000370: 1fb2 e23b b220 75be 897f 63be 88ea 093e
00000380: fbdb c2bd 4f94 0d3e dd44 4a3d b238 31be
00000390: 66cd 3fbe 9993 133e aa22 383d 7f6f 8dbd
000003a0: 7ee4 c73c e3cf 7bbe 1bb8 223e a754 f7bd
000003b0: efeb 14be bc69 c23d eb13 aabd 3956 3fbe
000003c0: 3ad0 04bd 29b7 95be 4cde 393e fda4 5cbe
000003d0: 60ed 903e 5057 a4bd 361e 24be 2072 403e
000003e0: c82e 613a 152b 6b3e 4da0 a63d 299f 9abe
000003f0: 7b32 8abe be64 de3d cbdd 3bbe 7ae9 023e

fc1.bias f4 [128]
-0.05458354 -0.28112802 0.08447385 -0.18826783 0.20288745 -0.14752756 -0.06684728 0.28432798
0.17499371 -0.13021728 -0.2171733 -0.2965675 0.025979135 0.14129652 0.22886452 0.15877077
-0.19302915 -0.17331882 0.012542978 -0.19495416 0.28995267 0.0073048817 -0.09489785 0.20564307
-0.19903499 0.21223113 -0.26759562 0.078927994 0.012915938 0.16893095 -0.058101967 -0.15177652
0.07896219 -0.29615203 -0.2807221 -0.09510065 -0.2107788 0.19521104 -0.21654886 0.146187
-0.20710266 -0.2913126 -0.22291778 0.021165114 0.032750417 0.21385871 -0.23507647 0.042669028
-0.11901194 0.06791851 0.020678664 0.23705988 -0.096787795 0.2123087 -0.18240856 0.06409101
0.2591411 -0.2217056 -0.20289004 -0.029982146 0.29607087 0.11020325 -0.13561538 -0.030585263
-0.1282324 0.17449348 0.2954496 -0.07239815 0.2604885 0.11517703 0.15813828 0.114821635
-0.28308415 -0.29418188 -0.28988668 0.024035381 0.04471592 0.0032208182 -0.29816368 0.28171897
0.1646378 0.23036112 0.21491072 -0.18989347 -0.23399721 -0.29172128 0.15940423 -0.07173987
-0.17566888 -0.24256925 -0.23901832 -0.07945354 0.1339233 0.27388427 0.0037097926 -0.056800157
-0.08290789 0.01143687 -0.09326643 0.15170328 0.035349824 0.11770433 -0.10851985 0.27582166
-0.15859044 0.14441814 0.21458662 0.20021063 -0.17289485 -0.08118054 0.27649453 -0.13046606
0.11263765 0.043907307 0.13654442 -0.12380062 -0.23455966 0.2095793 -0.09789912 0.10165826
-0.29157642 0.018553749 0.16629063 -0.27534926 -0.27295175 -0.2017279 -0.018057568 0.22647583
00000000: fd92 5fbd 03f0 8fbe a000 ad3d 48c9 40be
00000010: bac1 4f3e 7711 17be 3ae7 88bd 7093 913e
00000020: 8d31 333e ae57 05be ad62 5ebe b2d7 97be
00000030: 32d2 d43c 09b0 103e 765b 6a3e ce94 223e
00000040: 6fa9 45be 7d7a 31be 1081 4d3c 10a2 47be
00000050: ad74 943e ca5d ef3b ce59 c2bd 1994 523e
00000060: d4cf 4bbe 1e53 593e 4b02 89be 00a5 a13d
00000070: 5f9d 533c 3cfc 2c3e 54fc 6dbd 4e6b 1bbe
00000080: eeb6 a13d 3da1 97be cfba 8fbe 21c4 c2bd
00000090: 66d6 57be 67e5 473e fcbe 5dbe 0cb2 153e
000000a0: b812 54be ed26 95be 8f44 64be 7662 ad3c
000000b0: 4d25 063d c7fd 5a3e e3b7 70be b8c5 2e3d
000000c0: 88bc f3bd dc18 8b3d 4d66 a93c d3bf 723e
000000d0: ae38 c6bd 7467 593e 4fc9 3abe 2642 833d
000000e0: 24ae 843e cb06 63be 68c2 4fbe 1e9d f5bc
000000f0: 9a96 973e 3eb2 e13d c2de 0abe f28d fabc
00000100: 5b4f 03be 6bae 323e 2c45 973e 7b45 94bd
00000110: c05e 853e efe1 eb3d 00ef 213e 9b27 eb3d
00000120: 68f0 90be 029f 96be 076c 94be d9e5 c43c
00000130: 0a28 373d 5d14 533b e9a8 98be 783d 903e
00000140: d096 283e c9e3 6b3e 8e11 5c3e 6f73 42be
00000150: f79c 6fbe 7e5c 95be dd3a 233e 5aec 92bd
00000160: 8be2 33be 1364 78be 38c1 74be 8ab8 a2bd
00000170: 3123 093e 8f3a 8c3e fe1f 733b 48a7 68bd
00000180: 9dcb a9bd b661 3b3c 7802 bfbd 1b58 1b3e
00000190: faca 103d f80e f13d a83f debd 7f38 8d3e
000001a0: 8865 22be 59e2 133e 98bc 5b3e 0404 4d3e
000001b0: 590b 31be fc41 a6bd b190 8d3e e598 05be
000001c0: 91ae e63d 26d8 333d 4dd2 0b3e 2e8b fdbd
000001d0: 6830 70be f59b 563e 557f c8bd 3532 d03d
000001e0: 8149 95be 08fe 973c 1748 2a3e 94fa 8cbe
000001f0: 55c0 8bbe c291 4ebe 77ed 93bc 48e9 673e

fc2.weight f4 [1, 128]
0.0980692 -0.07427516 -0.014685458 0.064512044 0.04218775 -0.0073275035 0.06515961 0.08748184
-0.06776055 0.075665385 -0.0095950775 0.003658748 0.0601645 -0.024776239 0.0523455 -0.015283427
-0.076717354 0.08652292 0.13617389 -0.034612946 0.03363007 -0.066903 -0.11721584 0.099108055
0.114528626 0.006506142 -0.078276925 0.009069201 -0.0058348984 0.071378276 0.090174325 0.04752847
-0.0036400731 0.01737558 -0.030857518 0.017795533 -0.008418057 -0.03834276 0.06149281 -0.022442648
-0.0013336 0.028536381 0.0905647 0.019814378 0.0012319576 -0.00797942 -0.0017295716 0.07247004
-0.013491564 0.006089711 0.07117356 -0.09021198 0.001623486 0.03010936 -0.0592207 0.026411187
0.038122773 -0.091410674 0.03028245 -0.027336046 0.09063877 -0.012781337 -0.021146022 -0.06782988
-0.021624725 0.08542201 -0.05366874 0.017635366 -0.049372397 0.044117346 -0.07319728 0.07089688
0.06285047 -0.015376216 0.0531138 -0.003970619 0.007703843 0.027756585 -0.020914447 0.0017844449
0.083098106 -0.057781924 -0.010414079 -0.081945226 -0.028951442 -0.052125566 0.003767117 0.03919037
-0.053384367 -0.010616744 0.08234706 0.09517168 0.015422367 -0.04603271 -0.058326285 -0.06988961
-0.07114807 0.025263295 0.005041016 -0.050609395 -0.02233607 0.006774853 0.006038475 -0.026124889
0.0050097643 -0.031311452 0.09475132 -0.051801246 -0.021118 0.056590088 -0.06481137 -0.03754756
0.043944027 0.036494587 0.027758382 0.07168419 -0.04281629 0.006312251 0.078126445 0.13555227
0.027225273 0.11327017 -0.024837175 0.026019199 0.036916804 0.0680832 0.051004108 0.04459603
00000000: 81d8 c83d 931d 98bd 469b 70bc e41e 843d
00000010: 10cd 2c3d 8e1b f0bb 6772 853d ae29 b33d
00000020: 0bc6 8abd 74f6 9a3d ac34 1dbc 9bc7 6f3b
00000030: 0d6f 763d 8af7 cabc 3c68 563d 5767 7abc
00000040: fd1d 9dbd ee32 b13d 2b71 0b3e 4ec6 0dbd
00000050: afbf 093d 7104 89bd dc0e f0bd 2af9 ca3d
00000060: fc8d ea3d 7a31 d53b a74f a0bd fc96 143c
00000070: ad32 bfbb c62e 923d 51ad b83d 37ad 423d
00000080: 4b8e 6ebb 3b57 8e3c e8c8 fcbc f0c7 913c
00000090: e4eb 09bc 4c0d 1dbd e2df 7b3d a5d9 b7bc
000000a0: 31cc aeba 21c5 e93c fc79 b93d c351 a23c
000000b0: a379 a13a 1dbc 02bc cbb2 e2ba 2c6b 943d
000000c0: b90b 5dbc 338c c73b 72c3 913d 0fc1 b8bd
000000d0: 27cb d43a e8a7 f63c 6891 72bd 465c d83c
000000e0: a026 1c3d 8535 bbbd e712 f83c d8ef dfbc
000000f0: d2a0 b93d d068 51bc 6c3a adbc 64ea 8abd
00000100: 5626 b1bc bcf1 ae3d c1d3 5bbd 0b78 903c
00000110: b63a 4abd 64b4 343d 75e8 95bd 6232 913d
00000120: bfb7 803d 86ec 7bbc db8d 593d f71b 82bb
00000130: 8570 fc3b c761 e33c c654 abbc 09e4 e93a
00000140: 572f aa3d bdac 6cbd d09f 2abc e6d2 a7bd
00000150: 932b edbc 9e81 55bd bce1 763b 1586 203d
00000160: 91a9 5abd daf1 2dbc 93a5 a83d 5fe9 c23d
00000170: 18ae 7c3c cb8c 3cbd 8be7 6ebd 4922 8fbd
00000180: 14b6 91bd f8f4 ce3c 1b2f a53b cc4b 4fbd
00000190: 22fa b6bc 96ff dd3b 66de c53b dd03 d6bc
000001a0: f328 a43b 7040 00bd fb0c c23d 8b2d 54bd
000001b0: a8ff acbc 02cb 673d d3bb 84bd 78cb 19bd
000001c0: a7fe 333d 597b 153d 8c65 e33c 29cf 923d
000001d0: 2260 2fbd 00d7 ce3b c200 a03d 37ce 0a3e
000001e0: 8907 df3c 31fa e73d 5577 cbbc 3726 d53c
000001f0: 1336 173d 346f 8b3d afe9 503d 54aa 363d
