results/wine_mlp_zero_order_108.pt (torch, 8511 bytes, 3 tensors)

fc1.weight f4 [128, 11]
-0.12556368 -0.17871001 0.3633774 -0.29439703 0.23811291 0.15393086 0.20010388 0.0055568833
0.07720549 0.18606615 -0.19468558 0.27135304 0.053219564 0.13821423 -0.31200597 -0.07198148
-0.052925404 0.17306948 0.01805853 0.22982119 0.20556034 -0.22668925 0.18362565 -0.015384893
-0.04945792 -0.024696609 0.14299096 0.1971198 -0.08479324 0.0932677 -0.1761299 0.07293499
-0.2056221 -0.01866062 -0.17674191 0.2740454 -0.23109452 0.2864557 -0.12784465 -0.057590436
-0.019438209 0.03346168 0.27206945 -0.30791947 0.07756538 -0.31561908 0.0987953 0.07470985
-0.2650867 0.054027475 -0.110303916 -0.08119937 -0.20565467 0.14463414 0.20782942 0.020842595
0.18559124 -0.31484306 0.30260596 -0.22132488 0.15592392 -0.12804678 -0.20060053 -0.15156704
0.14260174 -0.21330649 0.21776065 -0.03978835 -0.16049537 0.21336085 0.2777173 -0.10008108
-0.22732334 -0.053243894 -0.1395648 -0.057985753 -0.23267137 -0.06570622 -0.11532902 0.07341554
0.02607985 0.31128183 -0.0750195 -0.29770944 0.18132044 0.34993297 -0.10894334 0.093813926
0.07541621 -0.009156908 0.08118593 0.10067776 -0.18533294 0.1957335 -0.027747434 -0.0030369565
-0.10044638 0.27541366 -0.2095792 -0.25790042 0.0046735574 0.24086756 -0.17342964 -0.17704481
-0.09366116 0.06351679 0.3274695 -0.25287813 -0.19918664 0.06461926 -0.2340101 -0.083991624
0.24748847 0.17258917 0.09102943 -0.12108931 -0.24682029 0.24144706 -0.018368699 0.05600492
0.3372442 0.3190936 0.032209385 0.26101544 0.023443498 -0.14501718 0.10289348 -0.09935658
0.19640581 -0.11666712 0.21691471 -0.053889718 0.31027862 0.15993771 0.09899883 -0.13135682
-0.30154753 -0.16864869 0.0022385404 0.30760697 -0.10395565 0.2295176 -0.1871341 0.26886684
0.0016461036 0.14528306 -0.20157574 -0.02671797 -0.003181429 0.36870572 0.06329964 -0.20477933
0.023276385 -0.2899425 0.17366211 0.06072485 0.0886451 0.005548214 0.24390815 0.123751365
-0.081844 0.16367213 0.20617159 -0.29965734 -0.028217092 0.13887468 0.0964175 -0.31183046
0.12317823 0.023213074 0.22396477 -0.0005128053 -0.31480297 -0.12299316 0.15035085 0.12220012
-0.18805264 0.27572846 0.24624234 0.23095804 0.19670773 0.1701211 0.20288515 -0.16760163
-0.21624812 0.10960995 -0.26724833 -0.21773066 0.020911237 -0.08972899 -0.23113988 -0.26914674
-0.20379417 -0.0003464871 -0.24203567 -0.23699096 0.16225469 0.24715239 0.1135239 -0.21923485
-0.031071877 0.12062622 -0.37036565 0.10789377 0.108982004 0.0023699983 -0.07298176 0.162144
0.30996668 -0.05650305 0.16944247 -0.013003856 -0.23164885 0.13344294 0.17796922 0.12232417
0.05286739 0.05053499 -0.022473227 0.08676469 -0.045030132 -0.16774812 0.10735988 0.10424403
0.013842949 -0.2643443 -0.14463674 0.04552802 0.05644306 -0.06923965 0.14881407 -0.07180124
0.15463436 0.29489097 0.16385852 0.24446394 -0.005651207 0.22726125 -0.33478785 -0.28439024
-0.26659325 -0.28220975 0.24045591 -0.04066052 0.18276949 -0.09918566 0.2900133 0.01793146
0.04342537 0.15374292 -0.030293386 -0.12922123 -0.15944915 -0.24826857 0.08550459 -0.21579291
00000000: c493 00be c2ff 36be 9a0c ba3e 35bb 96be
00000010: dfd3 733e 0da0 1d3e 08e8 4c3e 8416 b63b
00000020: e91d 9e3d 2088 3e3e a85b 47be c9ee 8a3e
00000030: c2fc 593d 0888 0d3e 3fbf 9fbe 076b 93bd
00000040: 4fc8 58bd 2039 313e 7bef 933c 3f56 6b3e
00000050: 697e 523e 3a21 68be 5d08 3c3e eb10 7cbc
00000060: 6394 4abd 8b50 cabc 396c 123e c6d9 493e
00000070: 14a8 adbd 2303 bf3d 665b 34be f15e 953d
00000080: 9a8e 52be 28de 98bc d5fb 34be ae4f 8c3e
00000090: 0ba4 6cbe 52aa 923e b5e9 02be f3e3 6bbd
000000a0: e13c 9fbc 1d0f 093d b04c 8b3e 9fa7 9dbe
000000b0: 99da 9e3d d398 a1be 3155 ca3d 7a01 993d
000000c0: 72b9 87be ea4b 5d3d 05e7 e1bd db4b a6bd
000000d0: 2397 52be f91a 143e 3cd1 543e 17be aa3c
000000e0: a10b 3e3e 1c33 a1be 2bef 9a3e fda2 62be
000000f0: 85aa 1f3e b21e 03be 3a6a 4dbe 6434 1bbe
00000100: 3106 123e 046d 5abe a6fc 5e3e 1cf9 22bd
00000110: e658 24be 447b 5a3e f630 8e3e 4ff7 ccbd
00000120: 73c7 68be 4516 5abd 13ea 0ebe 7882 6dbd
00000130: 6741 6ebe fc90 86bd 9f31 ecbd e35a 963d
00000140: 69a5 d53c 5560 9f3e d3a3 99bd 5f6d 98be
00000150: 11ac 393e 6a2a b33e b01d dfbd 8421 c03d
00000160: d073 9a3d db06 16bc cf44 a63d 2430 ce3d
00000170: ebc7 3dbe 5d6e 483e 964e e3bc ad07 47bb
00000180: d5b6 cdbd 0503 8d3e ee9b 56be 860b 84be
00000190: a424 993b fca5 763e 8a97 31be 3c4b 35be
000001a0: 6cd1 bfbd 1715 823d 15aa a73e 3e79 81be
000001b0: 95f7 4bbe 1a57 843d 58a0 6fbe cd03 acbd
000001c0: 9e6d 7d3e 37bb 303e a36d ba3d acfd f7bd
000001d0: 75be 7cbe e63d 773e f479 96bc 6a65 653d
000001e0: 46ab ac3e 3d60 a33e fded 033d d1a3 853e
000001f0: 940c c03c 627f 14be d1b9 d23d 767b cbbd
00000200: 9b1e 493e 2cef eebd e41e 5e3e 77bb 5cbd
00000210: d7dc 9e3e b6c6 233e e6bf ca3d 6782 06be
00000220: 7064 9abe 3eb2 2cbe 7ab4 123b a97e 9d3e
00000230: b3e6 d4bd a906 6b3e 15a0 3fbe eaa8 893e
00000240: 12c2 d73a 15c5 143e df69 4ebe a5df dabc
00000250: 867f 50bb ffc6 bc3e 3ea3 813d acb1 51be
00000260: 1eae be3c 5873 94be 7bd4 313e 9fba 783d
00000270: 908b b53d cbcd b53b 0fc3 793e 5b71 fd3d
00000280: d49d a7bd ab99 273e a51e 533e b06c 99be
00000290: 8827 e7bc 2a35 0e3e 8a76 c53d 3ea8 9fbe
000002a0: de44 fc3d 5829 be3c 0557 653e c86d 06ba
000002b0: db2d a1be d6e3 fbbd 93f5 193e 0e44 fa3d
000002c0: df90 40be 482c 8d3e f426 7c3e 4480 6c3e
000002d0: c06d 493e 3a34 2e3e 20c1 4f3e c39f 2bbe
000002e0: 2670 5dbe 2e7b e03d c6d4 88be c9f4 5ebe
000002f0: 0b4e ab3c d5c3 b7bd efaf 6cbe 9acd 89be
00000300: 6baf 50be b6a8 b5b9 33d8 77be c2ad 72be
00000310: 1826 263e 8415 7d3e 387f e83d 1a7f 60be
00000320: 738a febc e10a f73d 91a0 bdbe 69f7 dc3d
00000330: f531 df3d f951 1b3b 7677 95bd 1409 263e
00000340: f4b3 9e3e be6f 67bd 5482 2d3e 200e 55bc
00000350: 5b35 6dbe 44a5 083e 903d 363e 1885 fa3d
00000360: 7a8b 583d c7fd 4e3d c619 b8bc b0b1 b13d
00000370: 8471 38bd 2ac6 2bbe 7fdf db3d e57d d53d
00000380: 89cd 623c 2358 87be a71b 14be 977b 3a3d
00000390: d730 673d 85cd 8dbd b762 183e 870c 93bd
000003a0: 7858 1e3e f3fb 963e 87ca 273e c154 7a3e
000003b0: c32d b9bb 2cb7 683e 5069 abbe 999b 91be
000003c0: e97e 88be cc7d 90be 133a 763e a58b 26bd
000003d0: ed27 3b3e da21 cbbd a07c 943e ffe4 923c
000003e0: cdde 313d c96e 1d3e d629 f8bc 9252 04be
000003f0: a346 23be 1e3a 7ebe 081d af3d d1f8 5cbe

fc1.bias f4 [128]
0.41829646 -0.2793952 -0.23851605 -0.12511694 0.3683798 0.16602784 0.21578938 0.09829784
-0.12373873 -0.31423542 -0.14773034 0.32805687 -0.06723806 0.06237112 0.30516893 -0.05419649
-0.053008333 -0.030559756 -0.037822865 0.075179055 0.2668212 -0.016594803 0.33079755 -0.036511064
-0.07262973 -0.15039508 0.14505431 -0.14892834 0.2745163 -0.33274573 0.29108432 -0.010155341
0.14272818 -0.16074774 0.20657445 -0.34965146 -0.14987752 -0.15714511 0.31243584 0.0051223654
0.06470756 0.025308745 0.24350229 -0.1842013 0.15523131 -0.21190663 -0.2018344 -0.09382249
-0.1329032 -0.048656758 -0.25534233 -0.12618251 0.2280499 0.13365528 -0.26508316 -0.093724556
-0.07241061 -0.15513359 -0.023051102 -0.05979666 0.07836734 0.05257499 -0.0026513385 0.12021806
-0.05383015 -0.0961122 0.18230881 -0.2722647 0.12886947 0.16855906 0.26911283 0.00813781
0.061699074 0.07366698 -0.10970323 -0.08067242 -0.099034086 -0.16200651 0.1425314 0.02869125
0.085577205 -0.16781104 0.09366385 -0.3370478 0.19336267 0.14003712 0.16049148 -0.046847895
-0.31376106 0.21627854 0.02033452 0.089934915 0.14718758 0.1523889 0.22060354 -0.14618815
-0.11538723 0.24070959 0.19508481 0.10957604 0.1169716 -0.27106035 0.084969215 -0.16898361
0.023538103 0.043132637 0.21192442 0.2812814 -0.16569453 -0.2570071 0.1383579 0.04479801
0.16768609 0.24706337 -0.08345679 0.10217244 -0.15830156 -0.20108782 0.3450183 0.027131248
-0.22618765 0.009326754 -0.025376221 -0.1489529 -0.42614442 -0.015631013 0.11128554 0.029955471
00000000: f42a d63e e30c 8fbe 8d3d 74be a81e 00be
00000010: 479c bc3e 3403 2a3e e4f7 5c3e 6150 c93d
00000020: bb6a fdbd 77e3 a0be 9f46 17be 12f7 a73e
00000030: 1cb4 89bd dc78 7f3d 1a3f 9c3e 24fd 5dbd
00000040: 441f 59bd 7458 fabc 26ec 1abd 7af7 993d
00000050: ca9c 883e d3f1 87bc 4c5e a93e a08c 15bd
00000060: e5be 94bd 2b01 1abe 1e89 143e ac80 18be
00000070: 678d 8c3e a65d aabe 0109 953e 9662 26bc
00000080: 5627 123e 0e9b 24be 4188 533e 8405 b3be
00000090: 7e79 19be a6ea 20be 97f7 9f3e 84d9 a73b
000000a0: 6685 843d 4954 cf3c aa58 793e 449f 3cbe
000000b0: f5f4 1e3e 0dfe 58be adad 4ebe 0126 c0bd
000000c0: c717 08be 4f4c 47bd 3bbc 82be fd35 01be
000000d0: ea85 693e eedc 083e fbb8 87be a9f2 bfbd
000000e0: 044c 94bd 57db 1ebe aad5 bcbc 58ed 74bd
000000f0: 0e7f a03d df58 573d 14c2 2dbb e334 f63d
00000100: 017d 5cbd 79d6 c4bd 29af 3a3e 4766 8bbe
00000110: 5cf6 033e bf9a 2c3e 28c9 893e 7354 053c
00000120: 2bb8 7c3d b7de 963d 16ac e0bd 9537 a5bd
00000130: 62d2 cabd 09e5 25be c0f3 113e ea09 eb3c
00000140: 1a43 af3d a8d6 2bbe d5d2 bf3d 8791 acbe
00000150: dd00 463e e465 0f3e e157 243e 94e3 3fbd
00000160: 4aa5 a0be 1f78 5d3e 9494 a63c cc2f b83d
00000170: 57b8 163e d60b 1c3e e5e5 613e 59b2 15be
00000180: 2450 ecbd 937c 763e 50c4 473e 6769 e03d
00000190: ce8e ef3d 6cc8 8abe 5704 ae3d 0a0a 2dbe
000001a0: fbd2 c03c d9ab 303d b702 593e 1e04 903e
000001b0: d4ab 29be 6f96 83be b1ad 0d3e 1e7e 373d
000001c0: e7b5 2b3e 2efe 7c3e 65eb aabd c93f d13d
000001d0: ce19 22be f7e9 4dbe 3da6 b03e 5a42 de3c
000001e0: bc9d 67be 3ecf 183c cbe1 cfbc 1c87 18be
000001f0: 9a2f dabe 9c0c 80bc ace9 e33d 2d65 f53c

fc2.weight f4 [1, 128]
-0.10697638 0.07327516 0.060796678 0.108786695 0.037302375 0.02617201 0.017945586 0.07275209
-0.10234591 0.01966809 0.10392588 0.06351891 -0.05577363 -0.16467418 0.09168477 0.04530688
0.07048755 0.117896594 0.027591925 -0.07750571 -0.02352939 -0.009252305 -0.012790084 0.06281703
0.08120931 -0.044892665 0.022732953 -0.072957076 0.06447395 -0.16885234 -0.06582474 -0.11075526
-0.012380401 -0.011301512 0.03307233 -0.014157869 0.15533403 -0.061047986 -0.055365536 -0.0449144
0.044886567 0.19660859 0.09165961 -0.07619595 -0.059405733 -0.0316665 0.010759987 -0.073485285
-0.06944603 0.052191198 0.20629105 0.14498334 0.0322943 0.16044109 0.021005323 0.0049348786
-0.027487652 -0.0066448376 0.0042794035 0.13047831 -0.07298469 0.12668331 0.0028088149 -0.15955098
-0.050043926 -0.009957233 0.018820725 0.049808223 0.02059662 0.080925964 0.035000518 -0.07751213
0.12587339 -0.0053014816 -0.0046289484 -0.04997651 0.11815967 0.0129995765 0.13138561 -0.059089813
0.16368991 0.06268057 0.03813819 0.009694192 0.074970834 0.12654194 0.20129526 -0.00429323
-0.07271073 -0.051711243 0.09008452 -0.0184516 0.018987188 0.16277389 0.09894723 -0.04411616
0.019150903 -0.08137102 -0.044316106 -0.19512796 0.006205561 0.13338695 0.05169529 -0.100856885
0.065740064 -0.009116563 0.092309065 0.024082577 -0.0043942486 -0.00013280768 -0.016717019 0.018961493
0.030674508 0.02432496 0.12508549 -0.0035748316 0.04199246 -0.033493057 -0.09646155 0.060749058
0.0844857 0.06883538 0.07952964 -0.07101555 0.025261303 -0.021662371 0.09126695 -0.12122228
00000000: 6f16 dbbd 4911 963d f005 793d 8fcb de3d
00000010: 60ca 183d af66 d63c 9f02 933c 0cff 943d
00000020: bc9a d1bd f91e a13c 17d7 d43d 3416 823d
00000030: e472 64bd 59a0 28be 3ac5 bb3d b593 393d
00000040: c75b 903d c573 f13d 7608 e23c 50bb 9ebd
00000050: b5c0 c0bc fb96 17bc 808d 51bc 37a6 803d
00000060: 1151 a63d 5fe1 37bd 753a ba3c 856a 95bd
00000070: eb0a 843d a1e7 2cbe 1fcf 86bd a7d3 e2bd
00000080: 2ad7 4abc fa29 39bc da76 073d 68f6 67bc
00000090: e20f 1f3e 740d 7abd f9c6 62bd 29f8 37bd
000000a0: fada 373d c353 493e 09b8 bb3d 9f0c 9cbd
000000b0: 6d53 73bd bbb4 01bd a84a 303c 747f 96bd
000000c0: b839 8ebd 70c6 553d f63d 533e 8376 143e
000000d0: 0747 043d ab4a 243e 5b13 ac3c c3b4 a13b
000000e0: c92d e1bc f0bc d9bb 3d3a 8c3b 1b9c 053e
000000f0: ff78 95bd 45b9 013e 1814 383b 5561 23be
00000100: dcfa 4cbd aa23 23bc ec2d 9a3c b503 4c3d
00000110: 3eba a83c 83bc a53d b45c 0f3d aebe 9ebd
00000120: f4e4 003e 0db8 adbb 6fae 97bb 2bb4 4cbd
00000130: b2fd f13d 2dfc 543c f389 063e 2908 72bd
00000140: 549e 273e ac5e 803d ca36 1c3d 63d4 1e3c
00000150: 4f8a 993d 3694 013e 5820 4e3e 39ae 8cbb
00000160: 5de9 94bd 2bcf 53bd 3c7e b83d cf27 97bc
00000170: 058b 9b3c 33ae 263e d8a4 ca3d 26b3 34bd
00000180: 5be2 9c3c d9a5 a6bd ce84 35bd a0cf 47be
00000190: 0558 cb3b 9796 083e 71be 533d 0e8e cebd
000001a0: baa2 863d a35d 15bc 890c bd3d d348 c53c
000001b0: a1fd 8fbb 4a42 0bb9 21f2 88bc 2255 9b3c
000001c0: 1b49 fb3c 2345 c73c 6916 003e b947 6abb
000001d0: 4900 2c3d 0430 09bd a28d c5bd 01d4 783d
000001e0: d706 ad3d 90f9 8c3d 70e0 a23d 9a70 91bd
000001f0: cbf0 ce3c 4975 b1bc 2bea ba3d 6343 f8bd
