results/wine_mlp_sgd_174.pt (torch, 8405 bytes, 3 tensors)

fc1.weight f4 [128, 11]
000000 24 d1 82 3e 9d e0 91 be b4 27 83 3e ad 37 01 3e
       0.25550187 -0.2849168 0.2561623 0.12618895
000010 cd f9 60 3e ba a6 24 be 59 5b 9a be 07 10 b3 3c
       0.21970291 -0.16079226 -0.30147818 0.021858228
000020 3b a0 61 3e d7 d5 73 3e 64 e1 d8 bc 6a 87 7f 3e
       0.2203378 0.23812042 -0.026474662 0.24954
000030 d6 8a 23 bd 79 8d db 3d 66 a7 8f 3e 26 a5 33 3e
       -0.039927326 0.10720343 0.28057402 0.17543468
000040 32 e1 15 3e 1c 91 21 3d dd d9 5e bd af b6 ea bd
       0.14636686 0.039445028 -0.05440699 -0.114606254
000050 54 a4 50 3e 50 e0 24 3e 6c 6a 81 be cf f1 d3 3d
       0.20375186 0.16101193 -0.25276506 0.10348856
000060 44 03 e3 3d 79 48 8b 3e 6d 83 0d be 90 99 b9 bd
       0.11084607 0.2720373 -0.13819666 -0.09062493
000070 4f 6d 06 be a3 2c 4a 3d be 5b ff bc 36 e4 9f 3d
       -0.13127635 0.049358975 -0.031171676 0.078072
000080 a2 75 6d 3e a4 04 92 bd 55 c5 27 3d be c8 cb 3d
       0.23189405 -0.071297914 0.040959675 0.09950398
000090 ca 7f 2d 3e da a1 57 be 0c f0 3f be 15 e6 56 3c
       0.16943279 -0.21057835 -0.18743914 0.013116379
0000a0 f0 c3 7d 3d 5d 71 23 be c3 8b 26 3e a9 6a 36 3e
       0.06195444 -0.15961213 0.16264252 0.17814125
0000b0 02 a5 81 be f1 4b 18 bd 03 f5 88 be 82 07 e8 3d
       -0.25321203 -0.0371818 -0.2674943 0.11329557
0000c0 7a cc 3d 3e 5e 4c 8a bd e9 99 09 be f8 98 df bd
       0.18535033 -0.06752847 -0.13437618 -0.10917848
0000d0 02 dd 7c be f2 00 97 3e 28 41 23 be b8 df 6d bd
       -0.24693683 0.2949291 -0.15942824 -0.058074683
0000e0 c6 6e 3a 3e e9 d6 4a be 38 bb e0 bd 16 78 9b 3d
       0.18206319 -0.19808544 -0.10973209 0.07591264
0000f0 2f bd 8b 3e d8 87 9a 3e 8a 16 28 3e 5b 27 6d 3e
       0.27292773 0.30181766 0.16414848 0.23159544
000100 3d 9c 73 3e f6 ea 95 be 91 20 2e 3e 82 cd 58 be
       0.23790069 -0.29280823 0.1700461 -0.21172145
000110 e1 42 18 3e bd 55 5b be d9 84 90 be 7a ca fd bd
       0.14869262 -0.21419425 -0.28226355 -0.12392135
000120 4d b2 85 be 6c 41 3a 3d f8 16 17 3e 57 c7 fb bd
       -0.26112595 0.045472547 0.14754856 -0.122938804
000130 f8 2e fc 3c 43 60 97 3e 8c 23 27 3e af a5 d6 bd
       0.030784115 0.2956563 0.16322154 -0.104808204
000140 78 37 69 bd da 2f 97 3e dd 50 09 be a5 87 f4 3d
       -0.056937665 0.29528695 -0.13409753 0.11939935
000150 63 f6 b9 3b d1 46 64 be d3 33 15 3e 52 b8 fe 3d
       0.0056751235 -0.2229264 0.1457055 0.124375
000160 20 49 94 3e 7a 5b 98 be 9f c3 05 bd bd e1 ec 3d
       0.2896204 -0.2975729 -0.032657262 0.11566494
000170 83 04 51 3e c9 b8 8c 3c 2b fe cb 3c f9 b0 09 3e
       0.20411877 0.017177956 0.02490147 0.13446416
000180 da fc d6 bd 7a e9 25 3e de 58 0f 3e e6 f6 89 be
       -0.10497446 0.16202345 0.13998744 -0.2694618
000190 24 5f 9a be 53 2a 01 be 11 49 47 be 82 95 50 bd
       -0.30150712 -0.12613802 -0.19461466 -0.05092383
0001a0 f9 87 14 be 92 86 7e be 9b 57 7f be f5 97 4b 3e
       -0.14504994 -0.24856022 -0.24935763 0.19882186
0001b0 f3 f8 95 be 42 53 6f bc 28 15 1b 3e bf df 85 be
       -0.29291496 -0.014607253 0.15144789 -0.26147267
0001c0 22 bd 81 bd ed d4 31 be b3 aa 71 be db 6e f4 bd
       -0.06334902 -0.17366381 -0.23600273 -0.119352065
0001d0 55 44 c9 bd 93 9c 0c bd 3d 1c 73 be 01 56 90 be
       -0.098274864 -0.03432901 -0.23741241 -0.28190616
0001e0 15 06 7f be c8 76 0e 3e 90 5d 80 3e b8 0e 4b be
       -0.24904664 0.13912499 0.25071383 -0.19829834
0001f0 69 97 23 bd 6f 60 83 3e 1d a7 44 be f7 08 23 3e
       -0.039939318 0.2565951 -0.19204374 0.15921389
000200 85 89 d3 3c de 6a 0e 3e 86 9f 50 be aa b6 80 bd
       0.02582241 0.13907954 -0.20373353 -0.062848404
000210 c5 85 6f be a7 ff 1d be 77 cc 2c 3d 07 4d 36 be
       -0.23390873 -0.15429555 0.04218718 -0.17802821
000220 84 44 76 bd 78 e2 20 be 31 c2 83 be 9a d6 ab 3d
       -0.060123935 -0.15711391 -0.25734094 0.083905414
000230 49 b3 01 3e 85 34 85 be dc e3 3f be 7e 4e 92 3d
       0.12666048 -0.26016632 -0.18739265 0.071438774
000240 52 74 bb bd 4f 49 e6 bb fd 63 87 3e e0 67 2e 3d
       -0.09153046 -0.007027782 0.26443473 0.04257953
000250 a2 f8 78 3d fd e8 20 be 7c 1a 12 be f8 4b 46 be
       0.06078399 -0.15713878 -0.14267915 -0.19364917
000260 7e 15 6f be 12 cf 5a be d5 8e 87 bd c0 85 37 bd
       -0.23348042 -0.21368054 -0.0661904 -0.04480529
000270 9b 3c 02 3e cf 55 53 3e 04 ea 29 be 49 58 9f bd
       0.12718432 0.20638202 -0.16593176 -0.07780511
000280 6e d4 35 3c df e5 71 be eb 2e 35 ba 94 4d 37 bd
       0.01109801 -0.23622845 -0.00069115934 -0.04475172
000290 ed 99 46 3e 60 07 23 be 3c 2a 46 bc 6d 4d 21 be
       0.19394656 -0.15920782 -0.01209503 -0.15752192
0002a0 f4 fd 75 3d 16 14 d1 bd bd 30 16 be d9 db 1e 3e
       0.06005664 -0.10208909 -0.1466703 0.15513553
0002b0 40 f6 13 bd cd bc 71 be ad d9 22 bd 1c 2b 85 3e
       -0.036123514 -0.23607178 -0.039758373 0.26009452
0002c0 5c af 86 bd 46 d0 c7 bd 16 80 83 be af e5 58 3e
       -0.06576416 -0.09756522 -0.2568366 0.21181367
0002d0 25 42 80 3e 2e a8 2e 3e 0c 6b b1 bd f1 54 94 3e
       0.25050464 0.17056343 -0.08662996 0.28971055
0002e0 f2 bf b7 bd ce e9 89 3e dd c8 45 be 0c c9 98 be
       -0.089721575 0.2693619 -0.19314905 -0.29840887
0002f0 6f 97 4f be 8c 98 1a be 07 33 d8 bc 7c e8 34 be
       -0.20272611 -0.15097255 -0.02639152 -0.17666811
000300 1b 2b 85 be 82 b6 62 3e 92 92 2d 3e 9c 94 83 3e
       -0.2600945 0.22139934 0.16950443 0.25699317
000310 f3 64 77 be fc 83 8a be f9 55 ae bd 76 ab c1 bd
       -0.24159603 -0.2705382 -0.08512492 -0.09456532
000320 ef 0c c8 bc aa 44 96 be 71 6c 1f be b3 bf 86 be
       -0.02442023 -0.29349262 -0.15568711 -0.2631813
000330 49 34 1c bd 5b a0 84 3e e3 fc 1d be 8b 18 da bb
       -0.0381358 0.25903592 -0.154285 -0.006655758
000340 74 a5 93 3e 63 11 7d 3e 9f 7d b9 3d 7f a1 f0 bc
       0.28837168 0.24713664 0.090571634 -0.029373882
000350 ac 84 be bd 9c 76 81 3e ba 21 10 be 3d 8e e0 bd
       -0.09302649 0.25285804 -0.14075366 -0.1096463
000360 a3 1e 42 be 1b 51 19 3e 39 e9 90 3e ba 2d 41 bb
       -0.18957 0.14972346 0.28302935 -0.0029476718
000370 76 82 5d be 6f c4 df bc db a4 26 3d 38 64 12 3d
       -0.21631798 -0.027315347 0.040684562 0.035740107
000380 39 14 8f 3e 53 61 82 be 1d f3 8d 3e 77 d5 6d 3e
       0.27945116 -0.25464877 0.27724543 0.23225962
000390 3b 94 31 bd 2e e4 2c be 72 24 4b 3e 13 db 37 3e
       -0.043354254 -0.16883919 0.19838122 0.17954664
0003a0 7c b0 8d 3e 8b 89 3c 3d a7 22 8b 3d 38 20 92 3e
       0.2767371 0.04602961 0.06793719 0.28540206
0003b0 7c 36 ae 3c 26 79 39 3e d4 60 f5 bd 9b cf 59 be
       0.021266215 0.1811262 -0.11981359 -0.21270601
0003c0 fd 75 63 3e 2c 1f d0 3d c1 90 b8 3d dc 10 7b bd
       0.22212978 0.101621956 0.090119846 -0.061295375
0003d0 24 ae 94 be aa 45 8a bd 2f e6 b1 bd 39 a6 3a 3d
       -0.2903911 -0.067515686 -0.08686482 0.04556868
0003e0 96 80 2d 3e cd 98 6a 3e 70 4b d7 bc 94 a0 27 3e
       0.16943583 0.22909851 -0.026281089 0.1636985
0003f0 95 20 72 3e e7 2d e9 bd 8f db 11 be 3f 22 79 3e
       0.23645242 -0.11385708 -0.14243911 0.2432947

fc1.bias f4 [128]
000000 e0 ea 31 3c 82 58 6c bc 01 4f 94 be 1e 40 8b be
       0.010859221 -0.014425399 -0.28966525 -0.27197355
000010 44 77 4d 3e 9e 0a 0c be bf 0c 46 3e 94 62 d0 bd
       0.20065027 -0.13675925 0.193408 -0.10175052
000020 f3 b9 c0 bc eb da 8b be c5 e7 c8 3d 93 47 3d be
       -0.023526167 -0.2731546 0.098098315 -0.18484335
000030 28 a2 92 3e be 8d 82 3d ee aa b4 3d 93 a9 9a 3c
       0.2863934 0.063746914 0.08821665 0.018879687
000040 65 00 07 3e cb e1 52 3e 62 f8 ff 3d b5 45 85 be
       0.13183744 0.20593946 0.12498547 -0.26029745
000050 c6 e5 22 be 7e cb 83 3e fd 23 92 bd aa 56 8e 3e
       -0.15907964 0.2574119 -0.071357705 0.27800494
000060 84 7e 17 3c 16 fc e2 bd d8 70 f9 3d 3e 29 0a 3e
       0.009246472 -0.11083238 0.12179726 0.13492295
000070 0e 51 20 be 06 f8 ba bb e3 98 85 be de 87 47 3e
       -0.1565592 -0.005705836 -0.26093206 0.19485423
000080 95 d6 86 3d 43 42 10 3d 4e 9d 18 be ba ae f6 bd
       0.06583897 0.035219442 -0.14903757 -0.12045045
000090 be e4 1c 3e 69 5a 0b 3e c4 71 14 be ad 00 f6 3d
       0.15321633 0.13608707 -0.14496523 0.12011848
0000a0 c8 bc 67 3e 24 3c 5b 3e 91 35 0c 3e 3a 69 8f 3e
       0.22630608 0.2140966 0.13692309 0.2800997
0000b0 c3 bd 27 be 40 24 ff bd dc ef db 3d 3e d3 a8 3d
       -0.16380982 -0.12458086 0.10739109 0.08243416
0000c0 4a 35 78 be d1 f0 c1 bd c9 ad b7 bd d5 ea 90 3e
       -0.24239078 -0.0946976 -0.08968694 0.28304163
0000d0 b0 18 82 3d 83 c0 dc 3d 79 80 76 3c b7 34 4a be
       0.06352365 0.10778906 0.015045279 -0.19746672
0000e0 87 ad 0a be 9b 91 17 be 7a 34 4b be af 7e 8b be
       -0.13542758 -0.14801638 -0.19844237 -0.2724509
0000f0 15 cf 35 be d4 1d a6 3d a9 07 80 3d 65 c3 4c 3e
       -0.17754777 0.08111158 0.06251461 0.19996412
000100 11 7c 46 bd 3d 98 16 be e7 3c 1b 3e 19 b6 99 3c
       -0.048458163 -0.14706512 0.15159951 0.018763589
000110 28 92 c4 3d 84 2e 9a 3d 46 6a b0 bd 6d 16 89 3e
       0.095981896 0.075284034 -0.0861402 0.26774922
000120 14 bc cd 3c ce 2d 78 3e b6 ea fa 3d ef 3c 77 be
       0.025114097 0.24236223 0.12251799 -0.24144338
000130 c8 fd 44 be 0e cc 98 be 12 5c 21 be f1 85 97 be
       -0.19237435 -0.2984318 -0.15757778 -0.29594377
000140 9c c7 98 be 1e c9 27 be da 7a 0c be f8 bb 32 be
       -0.2983979 -0.16385314 -0.13718739 -0.17454517
000150 36 fe 94 bd 53 60 50 be c6 e3 96 be ed c3 48 3d
       -0.072750494 -0.20349245 -0.29470652 0.049014974
000160 19 e2 24 3e 79 a5 8a 3e 6b f7 5a 3e ba 52 76 3d
       0.16101874 0.2707937 0.21383445 0.060137488
000170 13 f2 12 3e da 6c 7b 3e 8c 5b 03 be 0b b1 28 bd
       0.14350156 0.24553242 -0.12827891 -0.041184466
000180 2f f9 1b 3d 9b 84 0f be 8e a2 75 3e 4b 44 36 3e
       0.038079437 -0.14015429 0.23987791 0.17799489
000190 ce fc 64 be 12 56 85 3e ff 7d 92 bd d5 16 66 3e
       -0.22362062 0.2604223 -0.07152938 0.22469647
0001a0 ab 5c e6 bd 62 ff 7d be 72 e0 76 be 87 02 f9 bd
       -0.11248144 -0.24804452 -0.24109057 -0.12158685
0001b0 80 49 39 3e b0 b6 8e 3b 8c f8 c5 3d 35 66 68 be
       0.18094444 0.004355274 0.09666547 -0.22695239
0001c0 19 c6 a4 bd 81 10 8a be 03 7e 68 3d b3 56 6b be
       -0.08045597 -0.26965716 0.0567608 -0.22982292
0001d0 5f ba 57 3e 66 18 6d 3e 53 47 80 3e 59 c3 4f 3e
       0.21067189 0.23153839 0.25054416 0.20289363
0001e0 b1 d9 b6 bd e0 8b ca 3d fa cd d8 bd 95 88 2a 3e
       -0.0892824 0.0988996 -0.10586162 0.16653664
0001f0 59 3b 8e 3e 99 4a a2 bd 51 ac 8b 3e 17 33 dc bc
       0.27779654 -0.079243846 0.27279904 -0.02687983

fc2.weight f4 [1, 128]
000000 e4 7a 84 bd be e1 d2 3d 03 01 9b 3c c7 c4 98 bd
       -0.06468752 0.10296963 0.01892138 -0.07459407
000010 13 5b e9 bc 91 a6 df bd 91 b4 97 bd 96 ce 8f bc
       -0.02848581 -0.10920442 -0.07407487 -0.017554563
000020 a1 48 c6 3d 39 1f 91 3d a3 ce 51 3d 94 a7 ed 3b
       0.096818216 0.070860334 0.051222455 0.007252643
000030 07 da 6a bd 52 dd f9 3c d3 1d 8a 3b 6f 7d a0 3d
       -0.057336833 0.030501042 0.004214981 0.078364246
000040 3e 73 60 bc 9e d8 af bd ea ee cd bc 4c 47 82 bc
       -0.013699351 -0.08586238 -0.025138337 -0.015903138
000050 69 6b 7e bc 77 44 81 3d de f9 b6 3d cb ef 41 bc
       -0.015528538 0.06311887 0.08934377 -0.011836956
000060 e3 c6 96 3d c8 30 0f 3d 03 fa a8 3d 99 f6 b2 bc
       0.073621534 0.03495863 0.08250811 -0.021846103
000070 35 6f 8d b9 13 9e 9d 3b b5 23 8b 3d 2d af b7 3c
       -0.0002697647 0.0048101037 0.0679392 0.022422398
000080 17 66 a6 bd 3c 68 9b 3d d2 37 6b bd 56 cd 38 3d
       -0.08124941 0.075882405 -0.05742628 0.0451177
000090 df 55 9c bd 16 51 25 3d 86 0a 12 3d ed 7b a7 bd
       -0.07633566 0.040360533 0.035654567 -0.08177934
0000a0 4f 0f e7 3b 17 ff a0 3d 9f ce 9f bd d2 68 12 3d
       0.0070513855 0.078611545 -0.07803082 0.035744496
0000b0 af e7 b3 3d 2a 06 6d 3d 54 53 cd bd 6c 48 a9 bd
       0.087844245 0.057867207 -0.10025659 -0.082657665
0000c0 12 d3 c0 3d ec bd b4 3c a9 c7 fd 3b 2b dc 2e bd
       0.094152585 0.022063218 0.0077447486 -0.042690437
0000d0 e2 6b 2b 3d 78 20 46 bd dc a7 4f 3d 99 3b 48 bd
       0.041850932 -0.04837081 0.050697193 -0.04888496
0000e0 19 db 8c 3c 35 a8 6c bd 69 f2 3f 3d 9a e0 ba bc
       0.017194318 -0.057777602 0.04686204 -0.022812176
0000f0 ae bc 60 3c ea b4 05 bd 98 77 86 3c 83 96 94 bd
       0.01371686 -0.032643236 0.016414449 -0.0725527
000100 ef 54 ce bd ff 53 53 bc de d5 50 3d f4 30 69 bc
       -0.100747935 -0.012898444 0.05098521 -0.014232863
000110 47 06 b9 3d a3 e0 dd 3b 30 fc 3a bd dc 0a e2 bd
       0.090344004 0.0067711635 -0.04565066 -0.110372275
000120 46 11 1b 3d 4d 20 05 be 12 fa 83 bd 3a 4d 59 3d
       0.03785827 -0.13000603 -0.064441815 0.053052165
000130 30 5a 1c 3d b6 aa c3 3b d6 ea ae bd 52 e8 da 3b
       0.038171947 0.005971278 -0.08540885 0.006680527
000140 c7 fe 16 bd 15 22 b3 bc e2 54 26 bd 9c 2e 0a 3d
       -0.03686407 -0.021866838 -0.040608294 0.033735856
000150 d8 42 1f 3d 8a 96 f2 3d 7f a4 4e 3d 39 a9 50 3d
       0.038882107 0.11845119 0.050449844 0.050942633
000160 3d c2 61 3d 5b e5 89 bd 5c c8 34 3c 43 52 ab 3d
       0.05511688 -0.06733199 0.0110340975 0.083652996
000170 e7 e1 1a bc 0d 16 c6 3c ec a2 10 bd 7e 73 c0 3d
       -0.009453273 0.024180437 -0.035311624 0.093970284
000180 e9 99 86 3c 25 51 ec bd 0d 0e ec bb 47 1f f6 3b
       0.016430812 -0.115389146 -0.0072038234 0.007511053
000190 73 6e 51 3c 29 d4 09 3d 28 21 e9 3c 07 4d 7c bd
       0.012782681 0.033649597 0.028458193 -0.061596896
0001a0 a5 ac 1a bd 48 38 70 bd 35 0c bb bc fb af 61 bd
       -0.037762303 -0.058647424 -0.02283297 -0.05509947
0001b0 ec 16 97 bd 2c 61 df 3c dd 23 34 bb 6b a7 fc bc
       -0.07377419 0.027268015 -0.0027487196 -0.03084155
0001c0 37 34 57 3d c1 65 aa 3c 88 a5 c7 bd 92 d3 c3 3c
       0.05254003 0.020800473 -0.097483695 0.023904596
0001d0 81 e5 d6 3c 40 e7 a6 bd 07 b0 ee 3c 62 1d af bc
       0.026232483 -0.08149576 0.02913667 -0.021376316
0001e0 c1 d1 82 bd 84 6a 36 bd b1 e0 d9 3b c6 1e 45 bc
       -0.06387664 -0.044535175 0.0066490998 -0.012031263
0001f0 57 37 f8 3d 17 72 83 bc a2 f1 b7 3d 29 38 26 3d
       0.1211993 -0.016045613 0.08981635 0.040580902
